Project/models/mlp_nids.onnx (onnx, 99733 bytes, 5 tensors)

coefficient f4 [126, 128]
-0.04442407 0.13999936 0.07685601 -0.01105466 -0.08011641 -0.081548266 -0.14060281 0.16801247
-0.012287268 0.084903486 -0.13461177 0.15704606 0.11481175 -0.06519033 -0.09074036 -0.10051425
-0.05560454 0.029982133 -0.0007961497 -0.0645461 0.011936354 -0.15220836 -0.07085017 -0.048913512
-0.0052491464 0.11594301 -0.10941544 0.03655592 0.01785712 -0.14728457 0.045229975 -0.05225166
-0.15366362 0.18538748 0.13238238 0.07728653 -0.04881086 -0.105486356 0.068006806 -0.016413108
-0.07601776 0.0005243171 -0.110953934 0.13508108 -0.021983713 0.048423998 -0.05712323 0.043621175
0.007258456 -0.040485617 0.17249665 0.06368721 0.16245209 0.11467678 0.019653562 0.16012369
-0.13716954 -0.066379555 -0.10341192 -0.05897773 -0.04554031 -0.08299889 0.07757037 -0.012583092
-0.024145566 -0.0065630684 -0.1221028 0.08915447 -0.13075234 0.17147559 0.086367115 -0.11172469
-0.14471118 0.11027492 0.06634314 0.08230419 0.05682845 -0.11745537 -0.052305598 -0.0976536
0.13871343 0.014079815 -0.041889284 -0.11893654 -0.036612146 -0.06117146 0.057780243 0.08030246
0.10877219 -0.0055461545 -0.10744627 0.034908533 0.06235694 -0.0064724856 0.07271934 0.058620322
-0.006075011 -0.03760714 -0.1384739 -0.11478649 -0.18016824 0.053558376 -0.046467222 0.0129934745
0.111177824 -0.08046427 -0.01035877 0.089092925 -0.06161311 -0.108404405 -0.07987393 -0.05365977
0.10235386 0.1141443 0.08068219 0.10348104 0.08253538 -0.08014508 0.10732745 -0.013907687
0.11582382 0.097678035 -0.03244022 -0.13870864 -0.07407658 -0.03932637 0.1079527 0.12977314
-0.13280472 -0.020201962 0.009895442 -0.09951124 -0.13176954 -0.07031333 0.09509303 -0.076431565
-0.05269257 0.09221378 -0.06933452 0.14561397 0.16079861 -0.09427802 0.0059644026 -0.059478384
-0.041229792 -0.1647301 0.05535238 0.01279754 -0.14314547 -0.08906537 0.11042176 -0.058486395
-0.13801797 -0.020601159 0.1660346 -0.02019291 0.06371402 0.093939826 -0.049997333 0.05006323
-0.09224819 0.02566552 0.025216741 -0.013545859 -0.16019271 0.12930997 -0.03393182 -0.07710486
-0.10333925 0.0030464004 0.03939578 -0.11752275 0.02955752 -0.07674028 0.018178267 -0.092872456
0.030260641 -0.036310297 0.09677661 -0.17085615 -0.019260876 -0.092892185 0.11699223 0.11189565
-0.028162794 0.07374209 0.06530079 0.02117627 -0.0011482359 -0.09878908 -0.17576972 0.10842269
0.113454364 0.016184794 -0.035266675 -0.02406393 0.07341364 0.14424166 0.077161506 0.088779844
0.039515696 -0.14821638 -0.16155984 0.15133697 0.043243714 -0.16101047 -0.10082036 0.06726076
-0.09534623 -0.07520193 0.034949034 0.063686155 -0.011227267 -0.17695487 0.048370335 -0.07346442
-0.04828515 0.07026825 0.058186788 0.10770356 0.06857753 0.013560098 -0.11747777 -0.08313502
-0.10935031 -0.13466401 0.15581575 -0.03579703 0.014263879 0.04429798 0.07668424 0.012043899
0.036342524 -0.016603488 -0.12277864 0.011272549 -0.05200838 -0.16869818 0.031600207 -0.11195373
0.10865711 0.12035683 0.13649972 -0.09505584 -0.1075337 0.08015625 0.013185297 0.11898266
0.1653115 0.092102006 -0.13430466 -0.057823934 0.0926767 -0.06885231 -0.12839401 0.0015100217
00000000: 03f6 35bd fe5b 0f3e af66 9d3d 9b1e 35bc
00000010: 1314 a4bd c702 a7bd 2ffa 0fbe 760b 2c3e
00000020: 8a50 49bc e1e1 ad3d abd7 09be afd0 203e
00000030: 6c22 eb3d 8282 85bd 15d6 b9bd 6ada cdbd
00000040: 96c1 63bd 179d f53c b4b4 50ba bf30 84bd
00000050: b390 433c 82dc 1bbe e519 91bd 8959 48bd
00000060: 0801 acbb 8773 ed3d 3415 e0bd a9bb 153d
00000070: 1849 923c c4d1 16be 1143 393d d605 56bd
00000080: ff59 1dbe 37d6 3d3e 3f8f 073e 6648 9e3d
00000090: e5ed 47bd 3b09 d8bd 2747 8b3d c874 86bc
000000a0: 33af 9bbd 5372 093a d13b e3bd b252 0a3e
000000b0: 3017 b4bc 3e58 463d 0cfa 69bd 1eac 323d
000000c0: 58d8 ed3b 3fd4 25bd f6a2 303e 716e 823d
000000d0: d759 263e a9db ea3d 8200 a13c 77f7 233e
000000e0: 2c76 0cbe 01f2 87bd a1c9 d3bd a292 71bd
000000f0: 7a88 3abd 52fb a9bd 37dd 9e3d 5029 4ebc
00000100: eccc c5bc 020f d7bb 0811 fabd 9e96 b63d
00000110: f1e3 05be 4c97 2f3e 3ee1 b03d eacf e4bd
00000120: 2b2f 14be d1d7 e13d eade 873d 198f a83d
00000130: f3c4 683d 718c f0bd 653e 56bd 9cfe c7bd
00000140: e50a 0e3e 06af 663c 1994 2bbd 0095 f3bd
00000150: 9ef6 15bd ed8e 7abd faaa 6c3d 9e75 a43d
00000160: f4c3 de3d 84bc b5bb ca0c dcbd 40fc 0e3d
00000170: fe69 7f3d 2517 d4bb e1ed 943d dd1b 703d
00000180: e310 c7bb f209 1abd 1acc 0dbe 2e15 ebbd
00000190: 067e 38be 0760 5b3d 6a54 3ebd 95e2 543c
000001a0: 33b1 e33d 74ca a4bd d5b7 29bc 5a76 b63d
000001b0: 075e 7cbd 2103 debd f194 a3bd 59ca 5bbd
000001c0: e79e d13d 7dc4 e93d b43c a53d deed d33d
000001d0: 4f08 a93d 1b23 a4bd 7ece db3d 11dd 63bc
000001e0: 0a35 ed3d 6c0b c83d 09e0 04bd a309 0ebe
000001f0: 76b5 97bd b014 21bd 4e16 dd3d 40e3 043e
00000200: f6fd 07be 967e a5bc 7e20 223c 8dcc cbbd
00000210: 98ee 06be 6f00 90bd 22c0 c23d 2788 9cbd
00000220: 2ad4 57bd 94da bc3d 42ff 8dbd d41b 153e
00000230: 64a8 243e d614 c1bd 0971 c33b 9b9f 73bd
00000240: 92e0 28bd 02af 28be 2db9 623d c6ac 513c
00000250: ba94 12be e867 b6bd ce24 e23d 6e8f 6fbd
00000260: 9554 0dbe c3c3 a8bc f904 2a3e 9a6b a5bc
00000270: 7f7c 823d 8663 c03d 01ca 4cbd 1a0f 4d3d
00000280: 9eec bcbd 7f40 d23c 5793 ce3c 73ef 5dbc
00000290: 8f09 24be d569 043e 18fc 0abd 27e9 9dbd
000002a0: 87a3 d3bd 1ea6 473b 785d 213d c4af f0bd
000002b0: 9d22 f23c 022a 9dbd 97ea 943c ea33 bebd
000002c0: 2ae5 f73c 1bba 14bd d132 c63d eaf4 2ebe
000002d0: fcc8 9dbc 423e bebd 9f99 ef3d 8c29 e53d
000002e0: a9b5 e6bc 1806 973d 6cbc 853d db79 ad3c
000002f0: 6780 96ba ee51 cabd fafc 33be b70c de3d
00000300: c35a e83d f995 843c ca73 10bd b821 c5bc
00000310: e459 963d 16b4 133e da06 9e3d 35d2 b53d
00000320: 36db 213d 09c6 17be f16f 25be 14f8 1a3e
00000330: 5220 313d eedf 24be e87a cebd 02c0 893d
00000340: e244 c3bd 7803 9abd b826 0f3d e36d 823d
00000350: 92f2 37bc a833 35be f91f 463d 8474 96bd
00000360: a6c6 45bd cde8 8f3d 4555 6e3d af93 dc3d
00000370: 6072 8c3d 2c2b 5e3c 2f98 f0bd b242 aabd
00000380: 0ef3 dfbd 5de5 09be 2a8e 1f3e e89f 12bd
00000390: 0bb3 693c cc71 353d a00c 9d3d c653 453c
000003a0: e6db 143d 0a04 88bc 5e73 fbbd 7fb0 383c
000003b0: bd06 55bd 37bf 2cbe 386f 013d ff47 e5bd
000003c0: 9e87 de3d a47d f63d 95c6 0b3e a3ac c2bd
000003d0: a13a dcbd f628 a43d 2507 583c 2ead f33d
000003e0: 6b47 293e fa9f bc3d 2987 09be cad8 6cbd
000003f0: 48cd bd3d 7102 8dbd b879 03be eceb c53a

intercepts f4 [1, 128]
0.17472973 0.020366775 0.092968546 0.18864341 0.14466727 -0.085736334 -0.055785894 0.04244411
-0.04047592 0.08500418 0.16310121 -0.068101846 0.011665869 -0.10591819 0.1162169 0.13563754
-0.02794804 -0.09292277 0.098787054 0.069809526 -0.043562975 0.15467222 0.12544875 0.03842065
0.066516235 0.03471099 0.053218387 0.023738433 -0.00030776195 -0.119481854 -0.052757077 -0.13261186
0.09004384 0.07547933 0.046678916 -0.040278737 -0.02501704 0.13886596 0.031118343 0.17950034
0.030748826 0.036168866 -0.140368 0.06777902 0.14435452 0.13718122 0.14159307 -0.048957262
0.010136156 0.026566574 0.04868933 -0.07835306 0.1345216 0.10991978 0.011092047 -0.022941962
-0.09189529 0.09574262 -0.067842335 0.15660076 0.07930803 0.089465015 0.09695986 -0.08251966
0.119842075 0.020271234 0.17670251 0.010035465 0.09530198 -0.10956476 0.09377478 0.1125524
0.10883164 0.11917533 -0.0852081 0.16265012 0.18258476 -0.14678675 0.1728866 -0.07478897
0.09468345 -0.07076303 0.17411174 -0.050862394 0.0372096 0.006336572 -0.017168373 0.058905743
-0.11780908 0.111869365 0.18987659 0.13556406 0.14045598 -0.056334578 -0.06377393 0.05360082
-0.05084517 0.16319089 -0.054179456 0.1406855 -0.09177908 0.13779296 -0.09430165 -0.14387932
0.055332966 -0.043142185 0.10380191 0.09776372 -0.13431232 0.12969337 0.03459875 0.10522989
-0.017309604 0.10960201 -0.026943807 -0.10042951 0.05287857 0.011664886 -0.05017752 0.036430225
0.07571416 -0.157259 0.059827693 0.012544325 -0.091324784 -0.06582759 -0.10260927 0.19182172
00000000: 5aec 323e 39d8 a63c 4b66 be3d bd2b 413e
00000010: a823 143e 8896 afbd c07f 64bd e0d9 2d3d
00000020: 14ca 25bd ac16 ae3d 0104 273e fb78 8bbd
00000030: 3322 3f3c a3eb d8bd 2003 ee3d 91e4 0a3e
00000040: 4af3 e4bc 4b4e bebd de50 ca3d 4cf8 8e3d
00000050: 176f 32bd 6562 1e3e a375 003e f95e 1d3d
00000060: aa39 883d 1c2d 0e3d 86fb 593d 1a77 c23c
00000070: 1c5b a1b9 e7b2 f4bd ce17 58bd 67cb 07be
00000080: e868 b83d e894 9a3d 6432 3f3d 51fb 24bd
00000090: 89f0 ccbc e132 0e3e e5eb fe3c f0ce 373e
000000a0: f6e4 fb3c ce25 143d a1bc 0fbe bacf 8a3d
000000b0: acd1 133e 3c79 0c3e c6fd 103e 6987 48bd
000000c0: 1f12 263c 25a2 d93c 776e 473d 9277 a0bd
000000d0: 08c0 093e 9f1d e13d 6bbb 353c c8f0 bbbc
000000e0: 9933 bcbd b514 c43d ecf0 8abd f35b 203e
000000f0: 406c a23d 6f39 b73d e492 c63d 1100 a9bd
00000100: c36f f53d dc0f a63c 81f1 343e ca6b 243c
00000110: af2d c33d 7d63 e0bd fe0c c03d df81 e63d
00000120: 1fe3 de3d 3212 f43d 9681 aebd c18d 263e
00000130: 80f7 3a3e 444f 16be 2f09 313e f62a 99bd
00000140: 66e9 c13d 35ec 90bd 594a 323e 1655 50bd
00000150: 1869 183d 05a3 cf3b b0a4 8cbc 2647 713d
00000160: e345 f1bd c41b e53d 026f 423e 4ed1 0a3e
00000170: b1d3 0f3e 16bf 66bd e89b 82bd 898c 5b3d
00000180: 0643 50bd 831b 273e 47eb 5dbd dc0f 103e
00000190: acf6 bbbd 9919 0d3e 3921 c1bd 1a55 13be
000001a0: d2a4 623d dcb5 30bd 1996 d43d 5838 c83d
000001b0: 2b89 09be 57ce 043e 6bb7 0d3d c582 d73d
000001c0: dfcc 8dbc 0577 e03d 42b9 dcbc fdad cdbd
000001d0: 3397 583d 141e 3f3c f186 4dbd dc37 153d
000001e0: 0710 9b3d 8108 21be e20d 753d b686 4d3c
000001f0: 7d08 bbbd 9ed0 86bd cf24 d2bd ea6c 443e

coefficient1 f4 [128, 64]
0.13464202 -0.084827155 -0.091642916 0.14051813 0.043428 0.075369254 0.12548302 0.016405279
-0.13382274 0.14734304 0.12708002 0.008197669 0.04521685 -0.09149506 0.010016634 0.124080226
0.20179492 0.021631353 0.15501282 -0.12530354 -0.05227153 -0.010964138 -0.07024115 0.088124655
-0.01732033 0.08578235 0.1697645 -0.033317976 -0.06582548 0.029557858 0.21193181 -0.0035694493
-0.12344922 -0.19984987 -0.02164576 -0.132487 0.09429689 0.16391121 -0.022837946 -0.08918824
-0.09910278 0.18581511 0.13016917 0.12551585 0.031462222 0.22721109 -0.06432749 0.01233033
0.025660677 0.0064712767 -0.04131066 -0.15132439 -0.057929847 0.007689808 0.08202295 0.121414036
-0.18389991 -0.017242953 0.0047713704 0.044903275 0.08856334 0.15557405 -0.122162476 0.003956538
0.18415165 0.20672017 0.22446781 0.1514115 0.20410451 -0.1224231 -0.12985049 -0.1929902
0.047606293 0.20405528 -0.1412761 0.027829636 0.06607866 0.11530824 0.098621175 0.20849651
-0.0006261666 -0.07671482 0.06643926 -0.029300049 -0.12646031 0.058008566 0.13198191 0.12943508
-0.00012306325 -0.008922613 0.0137271825 -0.18953346 0.068249695 -0.15265171 -0.09098633 0.050981145
-0.13099161 0.1307481 0.048359714 0.14029062 -0.17491014 0.079128936 -0.0029626423 0.0890703
-0.05157673 -0.04128448 0.20887859 0.0114554055 -0.10780658 0.08443846 0.024291601 -0.023796113
-0.051706757 -0.18736969 0.06618443 0.061815955 -0.040621087 0.014905627 -0.09457464 -0.1283529
-0.14541109 0.059984025 0.087456554 0.2034287 -0.08121865 0.09513876 -0.022061707 -0.037399177
0.16470179 -0.03020147 -0.10870305 0.10245826 -0.012860157 -0.18905854 -0.104845084 -0.08492498
0.03008956 -0.07978403 -0.04091579 -0.016472032 -0.032423727 0.14179063 -0.11819081 0.1896375
0.06704571 0.08412193 0.0120413415 0.0020858475 0.16923775 0.12069701 -0.061395265 -0.07518278
0.03539781 0.12504916 -0.022716237 0.03226983 0.10744826 0.08321216 0.054013535 -0.0371729
0.19561279 0.01821292 0.11237934 -0.06916844 0.04202467 -0.054646607 -0.04849248 0.05561873
-0.0037183047 0.09704686 0.020900996 0.074077584 0.018050775 0.12652302 -0.079274975 0.120275654
0.097970895 -0.07956083 -0.043642923 0.03466129 0.054968085 0.10389259 0.09579968 -0.061482858
-0.046696465 -0.020552872 0.02454308 0.09999754 -0.06468191 0.22503608 0.115539946 0.14124441
0.18999508 0.043769326 0.1823633 -0.07442341 -0.107780166 0.076241665 -0.17138323 0.1530345
0.03661738 0.13864581 -0.12743866 0.041373756 -0.18240345 0.08829211 -0.0671289 0.10443621
-0.05342147 -0.17713791 0.041077897 -0.12077115 0.12742159 -0.11033663 -0.019847048 0.062257882
-0.029646974 -0.07229643 0.16194439 -0.13612947 -0.10698577 -0.07962039 0.020245709 -0.021403367
-0.0057273754 0.071753584 -0.12221761 -0.046683468 -0.05664562 0.09631479 0.21016264 -0.022054931
0.1537712 -0.02976717 -0.09103001 -0.06476192 0.010308966 0.07559976 -0.16944303 0.035955846
-0.07835016 -0.15341546 -0.023201048 0.11122965 -0.070918344 0.115980476 0.08372244 -0.050038997
-0.11387603 0.021034596 0.13007809 -0.0095803 -0.043071516 -0.06427796 0.10684717 -0.05987005
00000000: 99df 093e dcb9 adbd 48af bbbd fce3 0f3e
00000010: 8fe1 313d 325b 9a3d 9f7e 003e 5d64 863c
00000020: d408 09be 18e1 163e 4421 023e 844f 063c
00000030: 4e35 393d c361 bbbd cf1c 243c c61d fe3d
00000040: 54a3 4e3e 3c34 b13c aebb 1e3e 924f 00be
00000050: ac1a 56bd eea2 33bc 98da 8fbd b37a b43d
00000060: 5de3 8dbc a8ae af3d bfd6 2d3e 6e78 08bd
00000070: 82cf 86bd 5223 f23c a704 593e 6ced 69bb
00000080: f2d2 fcbd 72a5 4cbe 7352 b1bc acaa 07be
00000090: ba1e c13d 57d8 273e a516 bbbc 53a8 b6bd
000000a0: 66f6 cabd 5146 3e3e 114b 053e 3a87 003e
000000b0: 88de 003d 06aa 683e 22be 83bd 2705 4a3c
000000c0: 5736 d23c 010d d43b 5e35 29bd c8f4 1abe
000000d0: d947 6dbd c9fa fb3b a6fb a73d eca7 f83d
000000e0: 4250 3cbe 1841 8dbc 2859 9c3b 7fec 373d
000000f0: b260 b53d ce4e 1f3e 5230 fabd d9a5 813b
00000100: 4092 3c3e 74ae 533e e4da 653e 9e0b 1b3e
00000110: c600 513e f6b8 fabd 87f7 04be 399f 45be
00000120: d1fe 423d def3 503e afaa 10be fafa e33c
00000130: 4054 873d ba26 ec3d e6f9 c93d 1c80 553e
00000140: 5425 24ba a91c 9dbd 4f11 883d a806 f0bc
00000150: d07e 01be 649a 6d3d 4426 073e a18a 043e
00000160: 8a0a 01b9 2730 12bc fae7 603c 0f15 42be
00000170: 7fc6 8b3d bb50 1cbe 0a57 babd 9bd1 503d
00000180: aa22 06be d4e2 053e d614 463d 58a8 0f3e
00000190: a51b 33be 5a0e a23d e428 42bb 7d6a b63d
000001a0: 1f42 53bd ea19 29bd 45e4 553e 74af 3b3c
000001b0: b2c9 dcbd 12ee ac3d 2eff c63c 11f0 c2bc
000001c0: 77ca 53bd d7dd 3fbe b48b 873d ba32 7d3d
000001d0: 4c62 26bd bb36 743c 59b0 c1bd f16e 03be
000001e0: a5e6 14be cfb1 753d 6c1c b33d 9d4f 503e
000001f0: f755 a6bd 1cd8 c23d c1ba b4bc e12f 19bd
00000200: 96a7 283e 1369 f7bc b49f debd a3d5 d13d
00000210: 68b3 52bc 9098 41be 05b9 d6bd 26ed adbd
00000220: 627e f63c cf65 a3bd 5197 27bd 5bf0 86bc
00000230: bece 04bd 9031 113e 060e f2bd 5530 423e
00000240: 434f 893d 1e48 ac3d 0c49 453c b7b2 083b
00000250: a94c 2d3e fe2f f73d 9a79 7bbd 6ef9 99bd
00000260: 4bfd 103d e30c 003e 6717 babc 5f2d 043d
00000270: d50d dc3d 236b aa3d 4c3d 5d3d 9c42 18bd
00000280: b84e 483e 4333 953c 2427 e63d 2fa8 8dbd
00000290: 0f22 2c3d 1fd5 5fbd 0da0 46bd 77d0 633d
000002a0: cdae 73bb 81c0 c63d 9138 ab3c fdb5 973d
000002b0: 38df 933c 408f 013e eb5a a2bd 1553 f63d
000002c0: f7a4 c83d caf0 a2bd ecc2 32bd fff8 0d3d
000002d0: 3726 613d a3c5 d43d 9f32 c43d 73d5 7bbd
000002e0: cb44 3fbd 7f5e a8bc 920e c93c 83cb cc3d
000002f0: f377 84bd dc6f 663e 35a0 ec3d 60a2 103e
00000300: 128e 423e 7747 333d 72bd 3a3e 4d6b 98bd
00000310: d9bb dcbd 9724 9c3d 167f 2fbe 13b5 1c3e
00000320: 1bfc 153d 2bf9 0d3e 487f 02be 8777 293d
00000330: f8c7 3abe 7ed2 b43d e07a 89bd a7e2 d53d
00000340: 79d0 5abd a463 35be 4c41 283d dd56 f7bd
00000350: ce7a 023e 2cf8 e1bd 4796 a2bc 1f02 7f3d
00000360: 36de f2bc 2710 94bd c0d4 253e 8665 0bbe
00000370: 5b1b dbbd 0410 a3bd 54da a53c 1d56 afbc
00000380: b5ac bbbb 8bf3 923d 3a4d fabd 2a37 3fbd
00000390: 3d05 68bd b040 c53d e034 573e 8bac b4bc
000003a0: 3376 1d3e 48da f3bc f16d babd e6a1 84bd
000003b0: f0e6 283c 0cd4 9a3d 7982 2dbe 7046 133d
000003c0: 0c76 a0bd f118 1dbe 2010 bebc 5fcc e33d
000003d0: a33d 91bd 2c87 ed3d ac76 ab3d b1f5 4cbd
000003e0: d637 e9bd bf50 ac3c 3133 053e b1f6 1cbc
000003f0: c26b 30bd 2aa4 83bd b0d2 da3d 4c3a 75bd

intercepts1 f4 [1, 64]
-0.112644516 -0.03166742 0.12930642 -0.01858972 -0.09788649 -0.0455193 0.013070736 -0.18419063
0.0367687 -0.013335099 -0.14608072 0.042025957 0.058422748 0.029413395 -0.03158159 0.034461815
-0.01673353 0.050821487 0.051460236 -0.15741068 0.07229695 0.048623923 -0.02009995 0.15422279
0.14710529 -0.1292426 0.17355846 -0.03957079 0.10359077 0.10358391 0.029302685 0.025999654
0.1674313 -0.10956857 -0.0654342 -0.05671059 0.114588656 0.18238507 -0.06752167 0.11467863
-0.097472474 0.18865676 0.081924476 -0.1414549 -0.13535324 -0.042920884 -0.109891586 0.12087616
-0.103054896 0.19072938 0.07154832 0.05000513 -0.111550465 0.16162927 0.08156583 0.1094689
0.15932593 -0.09463699 -0.07771771 0.13477422 0.16388457 0.05554625 -0.0490661 0.10730674
00000000: 2bb2 e6bd b2b5 01bd e768 043e 7849 98bc
00000010: b678 c8bd 7272 3abd a426 563c 789c 3cbe
00000020: c79a 163d 767b 5abc 2f96 15be 6923 2c3d
00000030: b14c 6f3d 5cf4 f03c b35b 01bd d527 0d3d
00000040: c214 89bc 312a 503d f8c7 523d 4430 21be
00000050: 6c10 943d e129 473d a6a8 a4bc 94ec 1d3e
00000060: c5a2 163e 2c58 04be 4fb9 313e fb14 22bd
00000070: 6627 d43d cd23 d43d 2f0c f03c 3afd d43c
00000080: 1c73 2b3e 7d65 e0bd 5e02 86bd 5d49 68bd
00000090: 75ad ea3d 27c3 3a3e cd48 8abd a1dc ea3d
000000a0: a69f c7bd 3d2f 413e 05c8 a73d 8ed9 10be
000000b0: 0a9a 0abe cfcd 2fbd d70e e1bd ec8d f73d
000000c0: 720e d3bd 904e 433e ed87 923d 2ed2 4c3d
000000d0: 9274 e4bd 2582 253e fc0b a73d 3b31 e03d
000000e0: 5626 233e 0ad1 c1bd 762a 9fbd 4102 0a3e
000000f0: 5bd1 273e 7784 633d 89f9 48bd a3c3 db3d

coefficient2 f4 [64, 1]
-0.18034427 -0.20383126 -0.038379177 -0.23350663 -0.045277115 0.28919238 0.21780741 0.25329825
0.18796785 -0.12595129 0.24189773 0.24281636 0.25657558 0.09836808 -0.1798773 -0.32627854
-0.26912212 0.2651275 -0.05393981 0.19677594 -0.046488643 0.081230566 -0.336598 -0.18791275
-0.08553538 0.06214619 -0.30067012 0.1431631 -0.12665713 0.19457886 -0.2878492 0.15719348
-0.15457548 0.18093644 -0.08199564 0.10998701 0.25093043 -0.3413307 -0.3539613 0.16989091
0.07547605 -0.15703997 -0.051633533 -0.3446455 -0.23501678 -0.19581956 0.2602656 -0.05638617
0.05809972 0.31665707 -0.12769935 0.10412909 0.21072093 -0.21897636 -0.108326554 0.27643538
0.34368017 -0.24928541 -0.39284298 -0.18419388 -0.12741871 -0.07140052 0.09705508 0.33446264
00000000: 2bac 38be 24b9 50be 7c33 1dbd 5d1c 6fbe
00000010: 7f74 39bd 0611 943e e808 5f3e 4fb0 813e
00000020: a57a 403e 60f9 00be 0ab4 773e daa4 783e
00000030: e05d 833e 3475 c93d c131 38be fb0d a7be
00000040: 60ca 89be cbbe 873e fdef 5cbd a27f 493e
00000050: e06a 3ebd 365c a63d 9356 acbe 336c 40be
00000060: 2c2d afbd 018d 7e3d 6ff1 99be 5999 123e
00000070: 68b2 01be ae3f 473e f860 93be 54f7 203e
00000080: 0949 1ebe 6747 393e 55ed a7bd df40 e13d
00000090: f479 803e e6c2 aebe 6a3a b5be e2f7 2d3e
000000a0: 3093 9a3d 16cf 20be af7d 53bd 6075 b0be
000000b0: 3da8 70be ec84 48be 8841 853e 2ff5 66bd
000000c0: f9f9 6d3d e020 a23e 9ec3 02be a241 d53d
000000d0: 3ac7 573e 573b 60be 50da ddbd f088 8d3e
000000e0: d9f6 af3e ad44 7fbe b722 c9be 529d 3cbe
000000f0: 0d7a 02be 703a 92bd d0c4 c63d b03e ab3e
